…
n\n```\nconda install -c conda-forge torchinfo\n```\n\n# how to use\n\n```python\nfrom torchinfo import summary\n\nmodel = convnet()\nbatch_size = 16\nsummary(model, input_size=(batch_size, 1, 28, 28))\n```\n\n```\n================================================================================================================\nlayer (type:depth-idx)          input shape          output shape         param #            mult-adds\n================================================================================================================\nsingleinputnet                  [7, 1, 28, 28]       [7, 10]              --                 --\n\u251c\u2500conv2d: 1-1                   [7, 1, 28, 28]       [7, 10, 24, 24]      260                1,048,320\n\u251c\u2500conv2d: 1-2                   [7, 10, 12, 12]      [7, 20, 8, 8]        5,020              2,248,960\n\u251c\u2500dropout2d: 1-3                [7, 20, 8, 8]        [7, 20, 8, 8]        --                 --\n\u251c\u2500linear: 1-4                   [7, 320]             [7, 50]              16,050             112,350\n\u251c\u2500linear: 1-5                   [7, 50]              [7, 10]              510                3,570\n================================================================================================================\ntotal params: 21,840\ntrainable params: 21,840\nnon-trainable params: 0\ntotal mult-adds (m): 3.41\n================================================================================================================\ninput size (mb): 0.02\nforward/backward pass size
…
5.80\n========================================================================================================================\n\n```\n\n<!-- lstm.out -->\n\n## resnet\n\n```python\nimport torchvision\n\nmodel = torchvision.models.resnet152()\nsummary(model, (1, 3, 224, 224), depth=3)\n```\n\n```\n==========================================================================================\nlayer (type:depth-idx)                   output shape              param #\n==========================================================================================\nresnet                                   [1, 1000]                 --\n\u251c\u2500conv2d: 1-1                            [1, 64, 112, 112]         9,408\n\u251c\u2500batchnorm2d: 1-2                       [1, 64, 112, 112]         128\n\u251c\u2500relu: 1-3                              [1, 64, 112, 112]         --\n\u251c\u2500maxpool2d: 1-4                         [1, 64, 56, 56]           --\n\u251c\u2500sequential: 1-5                        [1, 256, 56, 56]          --\n\u2502    \u2514\u2500bottleneck: 2-1                   [1, 256, 56, 56]          --\n\u2502    \u2502    \u2514\u2500conv2d: 3-1                  [1, 64, 56, 56]           4,096\n\u2502    \u2502    \u2514\u2500batchnorm2d: 3-2             [1, 64, 56, 56]           128\n\u2502    \u2502    \u2514\u2500relu: 3-3                    [1, 64, 56, 56]           --\n\u2502    \u2502    \u2514\u2500conv2d: 3-4                  [1, 64, 56, 56]           36,864\n\u2502    \u2502    \u2514\u2500batchnorm2d: 3-5             [1, 64, 56, 56]           128\n\u2502    \u2502    \u2514\u2500relu: 3-6                    [1, 64, 56, 56]           --\n\u2502    \u2502    \u2514\u2500conv2d: 3-7                  [1, 256, 56, 56]          16,384\n\u2502    \u2502    \u2514\u2500batchnorm2d: 3-8             [1, 256, 56, 56]          512\n\u2502    \u2502    \u2514\u2500sequential: 3-9              [1, 256, 56, 56]          16,896\n\u2502    \u2502    \u2514\u2500relu: 3-10                   [1, 256, 56, 56]          --\n\u2502    \u2514\u2500bottleneck: 2-2                   [1, 256, 56, 56]          --\n\n  ...\n  ...\n  ...\n\n\u251c\u2500adaptiveavgpool2d: 1-9                 [1, 2048, 1, 1]           --\n\u251c\u2500linear: 1-10                           [1, 1000]                 2,049,000\n==========================================================================================\ntotal params: 60,192,808\ntrainable params: 60,192,808\nnon-trainable params: 0\ntotal mult-adds (g): 11.51\n==========================================================================================\ninput size (mb): 0.60\nforward/backward pass size (mb): 360.87\nparams size (mb): 240.77\nestimated total
…
       out = self._sequential(x)\n        out = self._between(out)\n        for l in self._sequential:\n            out = l(out)\n\n        out = self._sequential(x)\n        for l in self._sequential:\n            out = l(out)\n        return out\n\nsummary(containermodule(), (1, 5))\n```\n\n```\n==========================================================================================\nlayer (type:depth-idx)                   output shape              param #\n==========================================================================================\ncontainermodule                          [1, 5]                    --\n\u251c\u2500modulelist: 1-1                        --                        --\n\u2502    \u2514\u2500linear: 2-1                       [1, 5]                    30\n\u2502    \u2514\u2500containerchildmodule: 2-2         [1, 5]                    --\n\u2502    \u2502    \u2514\u2500sequential: 3-1              [1, 5]                    --\n\u2502    \u2502    \u2502    \u2514\u2500linear: 4-1             [1, 5]                    30\n\u2502    \u2502    \u2502    \u2514\u2500linear: 4-2             [1, 5]                    30\n\u2502    \u2502    \u2514\u2500linear: 3-2                  [1, 5]                    30\n\u2502    \u2502    \u2514\u2500sequential: 3-3              --                        (recursive)\n\u2502    \u2502    \u2502    \u2514\u2500linear: 4-3             [1, 5]                    (recursive)\n\u2502    \u2502    \u2502    \u2514\u2500linear: 4-4             [1, 5]                    (recursive)\n\u2502    \u2502    \u2514\u2500sequential: 3-4              [1, 5]                    (recursive)\n\u2502    \u2502    \u2502    \u2514\u2500linear: 4-5             [1, 5]                    (recursive)\n\u2502    \u2502    \u2502    \u2514\u2500linear: 4-6             [1, 5]                    (recursive)\n\u2502    \u2502    \u2502    \u2514\u2500linear: 4-7             [1, 5]                    (recursive)\n\u2502    \u2502    \u2502    \u2514\u2500linear: 4-8             [1, 5]                    (recursive)\n\u2502    \u2514\u2500linear: 2-3                       [1, 5]                    30\n==========================================================================================\ntotal params: 150\ntrainable params: 150\nnon-trainable params: 0\ntotal mult-adds (m): 0.00\n==========================================================================================\ninput size (mb): 0.00\nforward/backward pass size (mb): 0.00\nparams size (mb): 0.00\nestimated total size (mb): 0.00\n=
…
