…
p>(</span><span class=n>batch_size</span><span class=p>,</span> <span class=mi>1</span><span class=p>,</span> <span class=mi>28</span><span class=p>,</span> <span class=mi>28</span><span class=p>))</span></pre><pre><code>================================================================================================================Layer (type:depth-idx)          Input Shape          Output Shape         Param #            Mult-Adds================================================================================================================SingleInputNet                  [7, 1, 28, 28]       [7, 10]              --                 --\u251c\u2500Conv2d: 1-1                   [7, 1, 28, 28]       [7, 10, 24, 24]      260                1,048,320\u251c\u2500Conv2d: 1-2                   [7, 10, 12, 12]      [7, 20, 8, 8]        5,020              2,248,960\u251c\u2500Dropout2d: 1-3                [7, 20, 8, 8]        [7, 20, 8, 8]        --                 --\u251c\u2500Linear: 1-4                   [7, 320]             [7, 50]              16,050             112,350\u251c\u2500Linear: 1-5                   [7, 50]              [7, 10]              510                3,570================================================================================================================Total params: 21,840Trainable params: 21,840Non-trainable params: 0Total mult-adds (M): 3.41================================================================================================================Input size (MB): 0.02Forward/backward pass size (MB): 0.40Param
…
/span><span class=mi>1</span><span class=p>,</span> <span class=mi>3</span><span class=p>,</span> <span class=mi>224</span><span class=p>,</span> <span class=mi>224</span><span class=p>),</span> <span class=n>depth</span><span class=o>=</span><span class=mi>3</span><span class=p>)</span></pre><pre><code>==========================================================================================Layer (type:depth-idx)                   Output Shape              Param #==========================================================================================ResNet                                   [1, 1000]                 --\u251c\u2500Conv2d: 1-1                            [1, 64, 112, 112]         9,408\u251c\u2500BatchNorm2d: 1-2                       [1, 64, 112, 112]         128\u251c\u2500ReLU: 1-3                              [1, 64, 112, 112]         --\u251c\u2500MaxPool2d: 1-4                         [1, 64, 56, 56]           --\u251c\u2500Sequential: 1-5                        [1, 256, 56, 56]          --\u2502    \u2514\u2500Bottleneck: 2-1                   [1, 256, 56, 56]          --\u2502    \u2502    \u2514\u2500Conv2d: 3-1                  [1, 64, 56, 56]           4,096\u2502    \u2502    \u2514\u2500BatchNorm2d: 3-2             [1, 64, 56, 56]           128\u2502    \u2502    \u2514\u2500ReLU: 3-3                    [1, 64, 56, 56]           --\u2502    \u2502    \u2514\u2500Conv2d: 3-4                  [1, 64, 56, 56]           36,864\u2502    \u2502    \u2514\u2500BatchNorm2d: 3-5             [1, 64, 56, 56]           128\u2502    \u2502    \u2514\u2500ReLU: 3-6                    [1, 64, 56, 56]           --\u2502    \u2502    \u2514\u2500Conv2d: 3-7                  [1, 256, 56, 56]          16,384\u2502    \u2502    \u2514\u2500BatchNorm2d: 3-8             [1, 256, 56, 56]          512\u2502    \u2502    \u2514\u2500Sequential: 3-9              [1, 256, 56, 56]          16,896\u2502    \u2502    \u2514\u2500ReLU: 3-10                   [1, 256, 56, 56]          --\u2502    \u2514\u2500Bottleneck: 2-2                   [1, 256, 56, 56]          --  ...  ...  ...\u251c\u2500AdaptiveAvgPool2d: 1-9                 [1, 2048, 1, 1]           --\u251c\u2500Linear: 1-10                           [1, 1000]                 2,049,000==========================================================================================Total params: 60,192,808Trainable params: 60,192,808Non-trainable params: 0Total mult-adds (G): 11.51==========================================================================================Input size (MB): 0.60Forward/backward pass size (MB): 360.87Params size (MB): 240.77Estimated Total Size (MB): 602.25==
…
an>        <span class=k>return</span> <span class=n>out</span><span class=n>summary</span><span class=p>(</span><span class=n>ContainerModule</span><span class=p>(),</span> <span class=p>(</span><span class=mi>1</span><span class=p>,</span> <span class=mi>5</span><span class=p>))</span></pre><pre><code>==========================================================================================Layer (type:depth-idx)                   Output Shape              Param #==========================================================================================ContainerModule                          [1, 5]                    --\u251c\u2500ModuleList: 1-1                        --                        --\u2502    \u2514\u2500Linear: 2-1                       [1, 5]                    30\u2502    \u2514\u2500ContainerChildModule: 2-2         [1, 5]                    --\u2502    \u2502    \u2514\u2500Sequential: 3-1              [1, 5]                    --\u2502    \u2502    \u2502    \u2514\u2500Linear: 4-1             [1, 5]                    30\u2502    \u2502    \u2502    \u2514\u2500Linear: 4-2             [1, 5]                    30\u2502    \u2502    \u2514\u2500Linear: 3-2                  [1, 5]                    30\u2502    \u2502    \u2514\u2500Sequential: 3-3              --                        (recursive)\u2502    \u2502    \u2502    \u2514\u2500Linear: 4-3             [1, 5]                    (recursive)\u2502    \u2502    \u2502    \u2514\u2500Linear: 4-4             [1, 5]                    (recursive)\u2502    \u2502    \u2514\u2500Sequential: 3-4              [1, 5]                    (recursive)\u2502    \u2502    \u2502    \u2514\u2500Linear: 4-5             [1, 5]                    (recursive)\u2502    \u2502    \u2502    \u2514\u2500Linear: 4-6             [1, 5]                    (recursive)\u2502    \u2502    \u2502    \u2514\u2500Linear: 4-7             [1, 5]                    (recursive)\u2502    \u2502    \u2502    \u2514\u2500Linear: 4-8             [1, 5]                    (recursive)\u2502    \u2514\u2500Linear: 2-3                       [1, 5]                    30==========================================================================================Total params: 150Trainable params: 150Non-trainable params: 0Total mult-adds (M): 0.00==========================================================================================Input size (MB): 0.00Forward/backward pass size (MB): 0.00Params size (MB): 0.00Estimated Total Size (MB): 0.00=======================
…
